epochs: 40  batch size: 2128  reg_parameter: 0.0
Net (
  (r1_l1_conv1): Conv1d(1, 4, kernel_size=(1,), stride=(1,), bias=False)
  (r1_l1_pool1): MaxPool1d (size=2, stride=2, padding=0, dilation=1, ceil_mode=False)
  (r1_l2_fc1): Linear (128 -> 10)
  (r1_l2_fc2): Linear (10 -> 10)
  (r1_l2_fc3): Linear (10 -> 128)
  (r1_l3_conv1): Conv1d(1, 4, kernel_size=(1,), stride=(1,), bias=False)
  (r2_l1_conv1): Conv1d(1, 4, kernel_size=(1,), stride=(1,), bias=False)
  (r2_l1_pool1): MaxPool1d (size=2, stride=2, padding=0, dilation=1, ceil_mode=False)
  (r2_l2_fc1): Linear (64 -> 10)
  (r2_l2_fc2): Linear (10 -> 10)
  (r2_l2_fc3): Linear (10 -> 64)
  (r2_l2_exp): Conv1d(1, 2, kernel_size=(1,), stride=(1,), bias=False)
  (r2_l3_conv1): Conv1d(1, 4, kernel_size=(1,), stride=(1,), bias=False)
  (r2_l3_exp): Conv1d(1, 2, kernel_size=(1,), stride=(1,), bias=False)
  (r3_l1_conv1): Conv1d(1, 4, kernel_size=(1,), stride=(1,), bias=False)
  (r3_l1_pool1): MaxPool1d (size=2, stride=2, padding=0, dilation=1, ceil_mode=False)
  (r3_l1_exp): Conv1d(1, 8, kernel_size=(1,), stride=(1,), bias=False)
  (r3_l2_fc1): Linear (32 -> 10)
  (r3_l2_fc2): Linear (10 -> 10)
  (r3_l2_fc3): Linear (10 -> 32)
  (r3_l2_exp): Conv1d(1, 4, kernel_size=(1,), stride=(1,), bias=False)
  (r3_l3_conv1): Conv1d(1, 4, kernel_size=(1,), stride=(1,), bias=False)
  (r3_l3_exp): Conv1d(1, 4, kernel_size=(1,), stride=(1,), bias=False)
  (error_function): MSELoss (
  )
)
[[ 1.0636441   0.6274931   0.92552527 ...,  0.85766513  0.94857832
   0.94292489]
 [ 0.03498919  1.17331602  0.45240525 ...,  0.32822083  0.46851291
   0.2821731 ]
 [ 0.06601141  0.30790734  1.8472492  ...,  0.60330618  0.87801986
   0.5061061 ]
 ..., 
 [ 0.04970947  0.49681736  0.72509086 ...,  1.67548514  0.74296227
…
