epochs: 40  batch size: 2128  reg_parameter: 0.0
Net (
  (r1_l1_conv1): Conv1d(1, 4, kernel_size=(1,), stride=(1,), bias=False)
  (r1_l1_pool1): MaxPool1d (size=2, stride=2, padding=0, dilation=1, ceil_mode=False)
  (r1_l2_fc1): Linear (128 -> 10)
  (r1_l2_fc2): Linear (10 -> 10)
  (r1_l2_fc3): Linear (10 -> 128)
  (r1_l3_conv1): Conv1d(1, 4, kernel_size=(1,), stride=(1,), bias=False)
  (r2_l1_conv1): Conv1d(1, 4, kernel_size=(1,), stride=(1,), bias=False)
  (r2_l1_pool1): MaxPool1d (size=2, stride=2, padding=0, dilation=1, ceil_mode=False)
  (r2_l2_fc1): Linear (64 -> 10)
  (r2_l2_fc2): Linear (10 -> 10)
  (r2_l2_fc3): Linear (10 -> 64)
  (r2_l2_exp): Conv1d(1, 2, kernel_size=(1,), stride=(1,), bias=False)
  (r2_l3_conv1): Conv1d(1, 4, kernel_size=(1,), stride=(1,), bias=False)
  (r2_l3_exp): Conv1d(1, 2, kernel_size=(1,), stride=(1,), bias=False)
  (r3_l1_conv1): Conv1d(1, 4, kernel_size=(1,), stride=(1,), bias=False)
  (r3_l1_pool1): MaxPool1d (size=2, stride=2, padding=0, dilation=1, ceil_mode=False)
  (r3_l1_exp): Conv1d(1, 8, kernel_size=(1,), stride=(1,), bias=False)
  (r3_l2_fc1): Linear (32 -> 10)
  (r3_l2_fc2): Linear (10 -> 10)
  (r3_l2_fc3): Linear (10 -> 32)
  (r3_l2_exp): Conv1d(1, 4, kernel_size=(1,), stride=(1,), bias=False)
  (r3_l3_conv1): Conv1d(1, 4, kernel_size=(1,), stride=(1,), bias=False)
  (r3_l3_exp): Conv1d(1, 4, kernel_size=(1,), stride=(1,), bias=False)
  (error_function): MSELoss (
  )
)
[[ 1.70018312  0.41439587  0.41174039 ...,  0.61197603  0.46413398
   0.62501054]
 [ 1.39055564  1.94673546  1.15643859 ...,  1.30502614  1.31260225
   0.884508  ]
 [ 1.22431888  0.62124854  1.89368768 ...,  1.02271057  0.93070032
   1.28810649]
 ..., 
 [ 1.52204998  0.99619182  1.01210097 ...,  2.4202394   1.20578888
…
