epochs: 100  batch size: 2128  reg_parameter: 0.0
Net (
  (r1_l1_conv1): Conv1d(1, 4, kernel_size=(1,), stride=(1,), bias=False)
  (r1_l1_pool1): MaxPool1d (size=2, stride=2, padding=0, dilation=1, ceil_mode=False)
  (r1_l2_fc1): Linear (128 -> 10)
  (r1_l2_fc2): Linear (10 -> 10)
  (r1_l2_fc3): Linear (10 -> 128)
  (r1_l3_conv1): Conv1d(1, 4, kernel_size=(1,), stride=(1,), bias=False)
  (r2_l1_conv1): Conv1d(1, 4, kernel_size=(1,), stride=(1,), bias=False)
  (r2_l1_pool1): MaxPool1d (size=2, stride=2, padding=0, dilation=1, ceil_mode=False)
  (r2_l2_fc1): Linear (64 -> 10)
  (r2_l2_fc2): Linear (10 -> 10)
  (r2_l2_fc3): Linear (10 -> 64)
  (r2_l2_exp): Conv1d(1, 2, kernel_size=(1,), stride=(1,), bias=False)
  (r2_l3_conv1): Conv1d(1, 4, kernel_size=(1,), stride=(1,), bias=False)
  (r2_l3_exp): Conv1d(1, 2, kernel_size=(1,), stride=(1,), bias=False)
  (r3_l1_conv1): Conv1d(1, 4, kernel_size=(1,), stride=(1,), bias=False)
  (r3_l1_pool1): MaxPool1d (size=2, stride=2, padding=0, dilation=1, ceil_mode=False)
  (r3_l1_exp): Conv1d(1, 8, kernel_size=(1,), stride=(1,), bias=False)
  (r3_l2_fc1): Linear (32 -> 10)
  (r3_l2_fc2): Linear (10 -> 10)
  (r3_l2_fc3): Linear (10 -> 32)
  (r3_l2_exp): Conv1d(1, 4, kernel_size=(1,), stride=(1,), bias=False)
  (r3_l3_conv1): Conv1d(1, 4, kernel_size=(1,), stride=(1,), bias=False)
  (r3_l3_exp): Conv1d(1, 4, kernel_size=(1,), stride=(1,), bias=False)
  (error_function): MSELoss (
  )
)
[[ 4.54578857  2.22577031  3.78649515 ...,  1.92426153  2.3156125
   2.90082312]
 [ 2.63437839  2.51017794  2.48127019 ...,  1.89087964  2.03957282
   2.26218905]
 [ 3.5789582   2.02520939  4.78142172 ...,  2.49974867  2.55567662
   3.22575671]
 ..., 
 [ 3.97177393  2.35018071  3.58336105 ...,  4.00856353  2.60943123
…
