epochs: 100  batch size: 2128  reg_parameter: 0.0
Net (
  (r1_l1_conv1): Conv1d(1, 4, kernel_size=(1,), stride=(1,), bias=False)
  (r1_l1_pool1): MaxPool1d (size=2, stride=2, padding=0, dilation=1, ceil_mode=False)
  (r1_l2_fc1): Linear (128 -> 10)
  (r1_l2_fc2): Linear (10 -> 10)
  (r1_l2_fc3): Linear (10 -> 128)
  (r1_l3_conv1): Conv1d(1, 4, kernel_size=(1,), stride=(1,), bias=False)
  (r2_l1_conv1): Conv1d(1, 4, kernel_size=(1,), stride=(1,), bias=False)
  (r2_l1_pool1): MaxPool1d (size=2, stride=2, padding=0, dilation=1, ceil_mode=False)
  (r2_l2_fc1): Linear (64 -> 10)
  (r2_l2_fc2): Linear (10 -> 10)
  (r2_l2_fc3): Linear (10 -> 64)
  (r2_l2_exp): Conv1d(1, 2, kernel_size=(1,), stride=(1,), bias=False)
  (r2_l3_conv1): Conv1d(1, 4, kernel_size=(1,), stride=(1,), bias=False)
  (r2_l3_exp): Conv1d(1, 2, kernel_size=(1,), stride=(1,), bias=False)
  (r3_l1_conv1): Conv1d(1, 4, kernel_size=(1,), stride=(1,), bias=False)
  (r3_l1_pool1): MaxPool1d (size=2, stride=2, padding=0, dilation=1, ceil_mode=False)
  (r3_l1_exp): Conv1d(1, 8, kernel_size=(1,), stride=(1,), bias=False)
  (r3_l2_fc1): Linear (32 -> 10)
  (r3_l2_fc2): Linear (10 -> 10)
  (r3_l2_fc3): Linear (10 -> 32)
  (r3_l2_exp): Conv1d(1, 4, kernel_size=(1,), stride=(1,), bias=False)
  (r3_l3_conv1): Conv1d(1, 4, kernel_size=(1,), stride=(1,), bias=False)
  (r3_l3_exp): Conv1d(1, 4, kernel_size=(1,), stride=(1,), bias=False)
  (error_function): MSELoss (
  )
)
[[ 1.50468483  1.37025211  0.75113817 ...,  0.47428261  1.1966805
   1.42064708]
 [ 0.55689454  2.12760416  0.76069286 ...,  0.31464309  0.94305704
   1.2081003 ]
 [ 0.39287909  1.02144868  2.11181797 ...,  0.45002841  1.37597094
   1.19727974]
 ..., 
 [ 0.69947704  1.04663522  0.67955477 ...,  1.15313756  0.61887681
…
