epochs: 40  batch size: 2128  reg_parameter: 0.0
Net (
  (r1_l1_conv1): Conv1d(1, 4, kernel_size=(1,), stride=(1,), bias=False)
  (r1_l1_pool1): MaxPool1d (size=2, stride=2, padding=0, dilation=1, ceil_mode=False)
  (r1_l2_fc1): Linear (128 -> 10)
  (r1_l2_fc2): Linear (10 -> 10)
  (r1_l2_fc3): Linear (10 -> 128)
  (r1_l3_conv1): Conv1d(1, 4, kernel_size=(1,), stride=(1,), bias=False)
  (r2_l1_conv1): Conv1d(1, 4, kernel_size=(1,), stride=(1,), bias=False)
  (r2_l1_pool1): MaxPool1d (size=2, stride=2, padding=0, dilation=1, ceil_mode=False)
  (r2_l2_fc1): Linear (64 -> 10)
  (r2_l2_fc2): Linear (10 -> 10)
  (r2_l2_fc3): Linear (10 -> 64)
  (r2_l2_exp): Conv1d(1, 2, kernel_size=(1,), stride=(1,), bias=False)
  (r2_l3_conv1): Conv1d(1, 4, kernel_size=(1,), stride=(1,), bias=False)
  (r2_l3_exp): Conv1d(1, 2, kernel_size=(1,), stride=(1,), bias=False)
  (r3_l1_conv1): Conv1d(1, 4, kernel_size=(1,), stride=(1,), bias=False)
  (r3_l1_pool1): MaxPool1d (size=2, stride=2, padding=0, dilation=1, ceil_mode=False)
  (r3_l1_exp): Conv1d(1, 8, kernel_size=(1,), stride=(1,), bias=False)
  (r3_l2_fc1): Linear (32 -> 10)
  (r3_l2_fc2): Linear (10 -> 10)
  (r3_l2_fc3): Linear (10 -> 32)
  (r3_l2_exp): Conv1d(1, 4, kernel_size=(1,), stride=(1,), bias=False)
  (r3_l3_conv1): Conv1d(1, 4, kernel_size=(1,), stride=(1,), bias=False)
  (r3_l3_exp): Conv1d(1, 4, kernel_size=(1,), stride=(1,), bias=False)
  (error_function): MSELoss (
  )
)
[[ 1.87100036  0.47069833  0.56331381 ...,  0.58889957  1.07756412
   0.98984197]
 [ 0.99757687  1.23393865  0.56185696 ...,  0.59992618  1.00938363
   0.9887996 ]
 [ 0.67926772  0.38079464  1.56313996 ...,  0.7210825   0.95294386
   0.75778056]
 ..., 
 [ 0.66786796  0.19232717  0.66059263 ...,  2.00159566  0.93649952
…
